…
an class="line">167</span><br><span class="line">168</span><br><span class="line">169</span><br><span class="line">170</span><br><span class="line">171</span><br><span class="line">172</span><br><span class="line">173</span><br><span class="line">174</span><br><span class="line">175</span><br><span class="line">176</span><br><span class="line">177</span><br><span class="line">178</span><br></pre></td><td class="code"><pre><span class="line"></span><br><span class="line">=&gt; using pre-trained model &#x27;resnet50&#x27;</span><br><span class="line">ResNet(</span><br><span class="line">  (conv1): Conv2d(3, 64, kernel_size=(7, 7), stride=(2, 2), padding=(3, 3), bias=False)</span><br><span class="line">  (bn1): BatchNorm2d(64, eps=1e-05, momentum=0.1, affine=True, track_running_stats=True)</span><br><span class="line">  (relu): ReLU(inplace=True)</span><br><span class="line">  (maxpool): MaxPool2d(kernel_size=3, stride=2, padding=1, dilation=1, ceil_mode=False)</span><br><span class="line">  (layer1): Sequential(</span><br><span class="line">    (0): Bottleneck(</span><br><span class="line">      (conv1): Conv2d(64, 64, kernel_size=(1, 1), stride=(1, 1), bias=False)</span><br><span class="line">      (bn1): BatchNorm2d(64, eps=1e-05, momentum=0.1, affine=True, track_running_stats=True)</span><br><span class="line">      (conv2): Conv2d(64, 64, kernel_size=(3, 3), stride=(1, 1), padding=(1, 1), bias=False)</span><br><span class="line">      (bn2): BatchNorm2d(64, eps=1e-05, momentum=0.1, affine=True, track_running_stats=True)</span><br><span class="line">      (conv3): Conv2d(64, 256, kernel_size=(1, 1), stride=(1, 1), bias=False)</span><br><span class="line">      (bn3): BatchNorm2d(256, eps=1e-05, momentum=0.1, affine=True, track_running_stats=True)</span><br><span class="line">      (relu): ReLU(inplace=True)</span><br><span class="line">      (downsample): Sequential(</span><br><span class="line">        (0): Conv2d(64, 256, kernel_size=(1, 1), stride=(1, 1), bias=False)</span><br><span class="line">        (1): BatchNorm2d(256, eps=1e-05, momentum=0.1, affine=True, track_running_stats=True)</span><br><span class="line">      )</span><br><span class="line">    )</span><br><span class="line">    (1): Bottleneck(</span><br><span class="line">      (conv1): Conv2d(256, 64, kernel_size=(1, 1), stride=(1, 1), bias=False)</span><br><span class="line">      (bn1): BatchNorm2d(64, eps=1e-05, momentum=0.1, affine=True, track_running_stats=True)</span><br><span class="line">      (conv2): Conv2d(64, 64, kernel_size=(3, 3), stride=(1, 1), padding=(1, 1), bias=False)</span><br><span class="line">      (bn2): BatchNorm2d(64, eps=1e-05, momentum=0.1, affine=True, track_running_stats=True)</span><br><span class="line">      (conv3): Conv2d(64, 256, kernel_size=(1, 1), stride=(1, 1), bias=False)</span><br><span class="line">      (bn3): BatchNorm2d(256, eps=1e-05, momentum=0.1, affine=True, track_running_stats=True)</span><br><span class="line">      (relu): ReLU(inplace=True)</span><br><span class="line">    )</span><br><span class="line">    (2): Bottleneck(</span><br><span class="line">      (conv1): Conv2d(256, 64, kernel_size=(1, 1), stride=(1, 1), bias=False)</span><br><span class="line">      (bn1): BatchNorm2d(64, eps=1e-05, momentum=0.1, affine=True, track_running_stats=True)</span><br><span class="line">      (conv2): Conv2d(64, 64, kernel_size=(3, 3), stride=(1, 1), padding=(1, 1), bias=False)</span><br><span class="line">      (bn2): BatchNorm2d(64, eps=1e-05, momentum=0.1, affine=True, track_running_stats=True)</span><br><span class="line">      (conv3): Conv2d(64, 256, kernel_size=(1, 1), stride=(1, 1), bias=False)</span><br><span class="line">      (bn3): BatchNorm2d(256, eps=1e-05, momentum=0.1, affine=True, track_running_stats=True)</span><br><span class="line">      (relu): ReLU(inplace=True)</span><br><span class="line">    )</span><br><span class="line">  )</span><br><span class="line">  (layer2): Sequential(</span><br><span class="line">    (0): Bottleneck(</span><br><span class="line">      (conv1): Conv2d(256, 128, kernel_size=(1, 1), stride=(1, 1), bias=False)</span><br><span class="line">      (bn1): BatchNorm2d(128, eps=1e-05, momentum=0.1, affine=True, track_running_stats=True)</span><br><span class="line">      (conv2): Conv2d(128, 128, kernel_size=(3, 3), stride=(2, 2), padding=(1, 1), bias=False)</span><br><span class="line">      (bn2): BatchNorm2d(128, eps=1e-05, momentum=0.1, affine=True, track_running_stats=True)</span><br><span class="line">      (conv3): Conv2d(128, 512, kernel_size=(1, 1), stride=(1, 1), bias=False)</span><br><span class="line">      (bn3): BatchNorm2d(512, eps=1e-05, momentum=0.1, affine=True, track_running_stats=True)</span><br><span class="line">      (relu): ReLU(inplace=True)</span><br><span class="line">      (downsample): Sequential(</span><br><span class="line">        (0): Conv2d(256, 512, kernel_size=(1, 1), stride=(2, 2), bias=False)</span><br><span class="line">        (1): BatchNorm2d(512, eps=1e-05, momentum=0.1, affine=True, track_running_stats=True)</span><br><span class="line">      )</span><br><span class="line">    )</span><br><span class="line">    (1): Bottleneck(</span><br><span class="line">      (conv1): Conv2d(512, 128, kernel_size=(1, 1), stride=(1, 1), bias=False)</span><br><span class="line">      (bn1): BatchNorm2d(128, eps=1e-05, momentum=0.1, affine=True, track_running_stats=True)</span><br><span class="line">      (conv2): Conv2d(128, 128, kernel_size=(3, 3), stride=(1, 1), padding=(1, 1), bias=False)</span><br><span class="line">      (bn2): BatchNorm2d(128, eps=1e-05, momentum=0.1, affine=True, track_running_stats=True)</span><br><span class="line">      (conv3): Conv2d(128, 512, kernel_size=(1, 1), stride=(1, 1), bias=False)</span><br><span class="line">      (bn3): BatchNorm2d(512, eps=1e-05, momentum=0.1, affine=True, track_running_stats=True)</span><br><span class="line">      (relu): ReLU(inplace=True)</span><br><span class="line">    )</span><br><span class="line">    (2): Bottleneck(</span><br><span class="line">      (conv1): Conv2d(512, 128, kernel_size=(1, 1), stride=(1, 1), bias=False)</span><br><span class="line">      (bn1): BatchNorm2d(128, eps=1e-05, momentum=0.1, affine=True, track_running_stats=True)</span><br><span class="line">      (conv2): Conv2d(128, 128, kernel_size=(3, 3), stride=(1, 1), padding=(1, 1), bias=False)</span><br><span class="line">      (bn2): BatchNorm2d(128, eps=1e-05, momentum=0.1, affine=True, track_running_stats=True)</span><br><span class="line">      (conv3): Conv2d(128, 512, kernel_size=(1, 1), stride=(1, 1), bias=False)</span><br><span class="line">      (bn3): BatchNorm2d(512, eps=1e-05, momentum=0.1, affine=True, track_running_stats=True)</span><br><span class="line">      (relu): ReLU(inplace=True)</span><br><span class="line">    )</span><br><span class="line">    (3): Bottleneck(</span><br><span class="line">      (conv1): Conv2d(512, 128, kernel_size=(1, 1), stride=(1, 1), bias=False)</span><br><span class="line">      (bn1): BatchNorm2d(128, eps=1e-05, momentum=0.1, affine=True, track_running_stats=True)</span><br><span class="line">      (conv2): Conv2d(128, 128, kernel_size=(3, 3), stride=(1, 1), padding=(1, 1), bias=False)</span><br><span class="line">      (bn2): BatchNorm2d(128, eps=1e-05, momentum=0.1, affine=True, track_running_stats=True)</span><br><span class="line">      (conv3): Conv2d(128, 512, kernel_size=(1, 1), stride=(1, 1), bias=False)</span><br><span class="line">      (bn3): BatchNorm2d(512, eps=1e-05, momentum=0.1, affine=True, track_running_stats=True)</span><br><span class="line">      (relu): ReLU(inplace=True)</span><br><span class="line">    )</span><br><span class="line">  )</span><br><span class="line">  (layer3): Sequential(</span><br><span class="line">    (0): Bottleneck(</span><br><span class="line">      (conv1): Conv2d(512, 256, kernel_size=(1, 1), stride=(1, 1), bias=False)</span><br><span class="line">      (bn1): BatchNorm2d(256, eps=1e-05, momentum=0.1, affine=True, track_running_stats=True)</span><br><span class="line">      (conv2): Conv2d(256, 256, kernel_size=(3, 3), stride=(2, 2), padding=(1, 1), bias=False)</span><br><span class="line">      (bn2): BatchNorm2d(256, eps=1e-05, momentum=0.1, affine=True, track_running_stats=True)</span><br><span class="line">      (conv3): Conv2d(256, 1024, kernel_size=(1, 1), stride=(1, 1), bias=False)</span><br><span class="line">      (bn3): BatchNorm2d(1024, eps=1e-05, momentum=0.1, affine=True, track_running_stats=True)</span><br><span class="line">      (relu): ReLU(inplace=True)</span><br><span class="line">      (downsample): Sequential(</span><br><span class="line">        (0): Conv2d(512, 1024, kernel_size=(1, 1), stride=(2, 2), bias=False)</span><br><span class="line">        (1): BatchNorm2d(1024, eps=1e-05, momentum=0.1, affine=True, track_running_stats=True)</span><br><span class="line">      )</span><br><span class="line">    )</span><br><span class="line">    (1): Bottleneck(</span><br><span class="line">      (conv1): Conv2d(1024, 256, kernel_size=(1, 1), stride=(1, 1), bias=False)</span><br><span class="line">      (bn1): BatchNorm2d(256, eps=1e-05, momentum=0.1, affine=True, track_running_stats=True)</span><br><span class="line">      (conv2): Conv2d(256, 256, kernel_size=(3, 3), stride=(1, 1), padding=(1, 1), bias=False)</span><br><span class="line">      (bn2): BatchNorm2d(256, eps=1e-05, momentum=0.1, affine=True, track_running_stats=True)</span><br><span class="line">      (conv3): Conv2d(256, 1024, kernel_size=(1, 1), stride=(1, 1), bias=False)</span><br><span class="line">      (bn3): BatchNorm2d(1024, eps=1e-05, momentum=0.1, affine=True, track_running_stats=True)</span><br><span class="line">      (relu): ReLU(inplace=True)</span><br><span class="line">    )</span><br><span class="line">    (2): Bottleneck(</span><br><span class="line">      (conv1): Conv2d(1024, 256, kernel_size=(1, 1), stride=(1, 1), bias=False)</span><br><span class="line">      (bn1): BatchNorm2d(256, eps=1e-05, momentum=0.1, affine=True, track_running_stats=True)</span><br><span class="line">      (conv2): Conv2d(256, 256, kernel_size=(3, 3), stride=(1, 1), padding=(1, 1), bias=False)</span><br><span class="line">      (bn2): BatchNorm2d(256, eps=1e-05, momentum=0.1, affine=True, track_running_stats=True)</span><br><span class="line">      (conv3): Conv2d(256, 1024, kernel_size=(1, 1), stride=(1, 1), bias=False)</span><br><span class="line">      (bn3): BatchNorm2d(1024, eps=1e-05, momentum=0.1, affine=True, track_running_stats=True)</span><br><span class="line">      (relu): ReLU(inplace=True)</span><br><span class="line">    )</span><br><span class="line">    (3): Bottleneck(</span><br><span class="line">      (conv1): Conv2d(1024, 256, kernel_size=(1, 1), stride=(1, 1), bias=False)</span><br><span class="line">      (bn1): BatchNorm2d(256, eps=1e-05, momentum=0.1, affine=True, track_running_stats=True)</span><br><span class="line">      (conv2): Conv2d(256, 256, kernel_size=(3, 3), stride=(1, 1), padding=(1, 1), bias=False)</span><br><span class="line">      (bn2): BatchNorm2d(256, eps=1e-05, momentum=0.1, affine=True, track_running_stats=True)</span><br><span class="line">      (conv3): Conv2d(256, 1024, kernel_size=(1, 1), stride=(1, 1), bias=False)</span><br><span class="line">      (bn3): BatchNorm2d(1024, eps=1e-05, momentum=0.1, affine=True, track_running_stats=True)</span><br><span class="line">      (relu): ReLU(inplace=True)</span><br><span class="line">    )</span><br><span class="line">    (4): Bottleneck(</span><br><span class="line">      (conv1): Conv2d(1024, 256, kernel_size=(1, 1), stride=(1, 1), bias=False)</span><br><span class="line">      (bn1): BatchNorm2d(256, eps=1e-05, momentum=0.1, affine=True, track_running_stats=True)</span><br><span class="line">      (conv2): Conv2d(256, 256, kernel_size=(3, 3), stride=(1, 1), padding=(1, 1), bias=False)</span><br><span class="line">      (bn2): BatchNorm2d(256, eps=1e-05, momentum=0.1, affine=True, track_running_stats=True)</span><br><span class="line">      (conv3): Conv2d(256, 1024, kernel_size=(1, 1), stride=(1, 1), bias=False)</span><br><span class="line">      (bn3): BatchNorm2d(1024, eps=1e-05, momentum=0.1, affine=True, track_running_stats=True)</span><br><span class="line">      (relu): ReLU(inplace=True)</span><br><span class="line">    )</span><br><span class="line">    (5): Bottleneck(</span><br><span class="line">      (conv1): Conv2d(1024, 256, kernel_size=(1, 1), stride=(1, 1), bias=False)</span><br><span class="line">      (bn1): BatchNorm2d(256, eps=1e-05, momentum=0.1, affine=True, track_running_stats=True)</span><br><span class="line">      (conv2): Conv2d(256, 256, kernel_size=(3, 3), stride=(1, 1), padding=(1, 1), bias=False)</span><br><span class="line">      (bn2): BatchNorm2d(256, eps=1e-05, momentum=0.1, affine=True, track_running_stats=True)</span><br><span class="line">      (conv3): Conv2d(256, 1024, kernel_size=(1, 1), stride=(1, 1), bias=False)</span><br><span class="line">      (bn3): BatchNorm2d(1024, eps=1e-05, momentum=0.1, affine=True, track_running_stats=True)</span><br><span class="line">      (relu): ReLU(inplace=True)</span><br><span class="line">    )</span><br><span class="line">  )</span><br><span class="line">  (layer4): Sequential(</span><br><span class="line">    (0): Bottleneck(</span><br><span class="line">      (conv1): Conv2d(1024, 512, kernel_size=(1, 1), stride=(1, 1), bias=False)</span><br><span class="line">      (bn1): BatchNorm2d(512, eps=1e-05, momentum=0.1, affine=True, track_running_stats=True)</span><br><span class="line">      (conv2): Conv2d(512, 512, kernel_size=(3, 3), stride=(2, 2), padding=(1, 1), bias=False)</span><br><span class="line">      (bn2): BatchNorm2d(512, eps=1e-05, momentum=0.1, affine=True, track_running_stats=True)</span><br><span class="line">      (conv3): Conv2d(512, 2048, kernel_size=(1, 1), stride=(1, 1), bias=False)</span><br><span class="line">      (bn3): BatchNorm2d(2048, eps=1e-05, momentum=0.1, affine=True, track_running_stats=True)</span><br><span class="line">      (relu): ReLU(inplace=True)</span><br><span class="line">      (downsample): Sequential(</span><br><span class="line">        (0): Conv2d(1024, 2048, kernel_size=(1, 1), stride=(2, 2), bias=False)</span><br><span class="line">        (1): BatchNorm2d(2048, eps=1e-05, momentum=0.1, affine=True, track_running_stats=True)</span><br><span class="line">      )</span><br><span class="line">    )</span><br><span class="line">    (1): Bottleneck(</span><br><span class="line">      (conv1): Conv2d(2048, 512, kernel_size=(1, 1), stride=(1, 1), bias=False)</span><br><span class="line">      (bn1): BatchNorm2d(512, eps=1e-05, momentum=0.1, affine=True, track_running_stats=True)</span><br><span class="line">      (conv2): Conv2d(512, 512, kernel_size=(3, 3), stride=(1, 1), padding=(1, 1), bias=False)</span><br><span class="line">      (bn2): BatchNorm2d(512, eps=1e-05, momentum=0.1, affine=True, track_running_stats=True)</span><br><span class="line">      (conv3): Conv2d(512, 2048, kernel_size=(1, 1), stride=(1, 1), bias=False)</span><br><span class="line">      (bn3): BatchNorm2d(2048, eps=1e-05, momentum=0.1, affine=True, track_running_stats=True)</span><br><span class="line">      (relu): ReLU(inplace=True)</span><br><span class="line">    )</span><br><span class="line">    (2): Bottleneck(</span><br><span class="line">      (conv1): Conv2d(2048, 512, kernel_size=(1, 1), stride=(1, 1), bias=False)</span><br><span class="line">      (bn1): BatchNorm2d(512, eps=1e-05, momentum=0.1, affine=True, track_running_stats=True)</span><br><span class="line">      (conv2): Conv2d(512, 512, kernel_size=(3, 3), stride=(1, 1), padding=(1, 1), bias=False)</span><br><span class="line">      (bn2): BatchNorm2d(512, eps=1e-05, momentum=0.1, affine=True, track_running_stats=True)</span><br><span class="line">      (conv3): Conv2d(512, 2048, kernel_size=(1, 1), stride=(1, 1), bias=False)</span><br><span class="line">      (bn3): BatchNorm2d(2048, eps=1e-05, momentum=0.1, affine=True, track_running_stats=True)</span><br><span class="line">      (relu): ReLU(inplace=True)</span><br><span class="line">    )</span><br><span class="line">  )</span><br><span class="line">  (avgpool): AvgPool2d(kernel_size=7, stride=1, padding=0)</span><br><span class="line">  (fc): Linear(in_features=2048, out_features=1000, bias=True)</span><br><span class="line">)</span><br></pre></td></tr></table></figure><h2 id="load-model-parameters"><a href="#load-model-parameters" class="headerlink" title="load model parameters"></a>load model parameters</h2><figure class="highlight plaintext"><table><tr><td class="gutter"><pre><span class="line">1</span><br><span class="line">2</span><br><s
…
